model_zoo/team41_DepthIBN.pth (torch, 553274 bytes, 196 tensors)

fea_conv.pw.weight f4 [48, 3, 1, 1]
000000 97 6f bb 3e 7d 0d 93 be b0 e9 4a be 2f 26 8f 3e
       0.36608574 -0.28721228 -0.19815707 0.2795882
000010 55 31 1f bf 96 d3 b4 3e 91 9f fc bd 87 e8 8b 3e
       -0.6218465 0.35317677 -0.123351224 0.27325842
000020 42 91 9c bd 03 a3 b6 bd 6d 9e 15 3e d3 6a 04 3c
       -0.07644893 -0.08917811 0.14611216 0.0080821095
000030 c3 34 8c 3e c3 3d 8d be 5c bb fa bc 80 39 69 3e
       0.27384004 -0.27586183 -0.030606918 0.22775841
000040 a8 8d a6 3e cd 5e 30 bf c0 9b 2b 3f 7c 3d 85 3e
       0.3252995 -0.68894655 0.6703453 0.2602347
000050 0b d4 85 be 8a 68 99 be b3 54 7b bd 1a e5 46 be
       -0.26138338 -0.2996257 -0.061360072 -0.19423333
000060 a3 98 57 bf 93 c3 b4 bd a6 0c 7c 3f 97 29 91 3e
       -0.8421728 -0.08826365 0.984568 0.28352043
000070 a2 61 35 bf c5 6b e6 3e f5 ab 9e 3e e8 37 45 3f
       -0.708521 0.45004097 0.30990568 0.7703843
000080 7e 30 05 3f 27 fb 0a bf 29 57 0d bf 27 98 96 be
       0.5202712 -0.5428948 -0.5521112 -0.29412958
000090 5c 11 de 3e cf c5 2a be 3c 0b 1e 3e fd 30 95 be
       0.4337262 -0.1667702 0.15433973 -0.29138938
0000a0 e1 5d 12 3f ef 2d 92 be 85 de 00 3f 53 d2 20 3d
       0.571745 -0.2855067 0.5033954 0.03926308
0000b0 6d 34 1e bf 92 54 88 3e 64 ff ff be f4 f5 5a 3e
       -0.61798745 0.26627022 -0.49999535 0.21382886
0000c0 96 81 b2 be 81 99 13 be 40 29 6c bf 22 40 91 be
       -0.3486449 -0.14414026 -0.9225044 -0.28369242
0000d0 c2 c3 99 3e 4b 8a 2f be 87 e9 de 3e a5 8e 19 bc
       0.30032164 -0.17142598 0.43537542 -0.009372388
0000e0 c8 8b a2 be 56 63 b9 be 86 38 ae 3e f5 1c 1e 3e
       -0.3174727 -0.362086 0.340275 0.15440734
0000f0 b2 b8 13 bf 74 b5 f3 3e a6 ab 2a 3f 74 c0 0d 3f
       -0.577037 0.47599375 0.66668165 0.55371785
000100 09 b8 c3 be 1c 3c 4d be 33 1e 28 3d f0 48 f3 3d
       -0.38226345 -0.20042461 0.041044425 0.11879146
000110 46 39 e0 be f5 b4 c6 be 11 34 cf 3e d4 e3 83 bd
       -0.43793696 -0.38809934 0.4046941 -0.06439939
000120 9d a4 53 3e d5 be d1 bc ae a2 17 3e 0c 38 ae 3e
       0.20668264 -0.025603691 0.14808151 0.34027135
000130 67 26 ce 3e d9 5d b8 3e 8f 31 25 bf bd ad 82 3e
       0.40263674 0.360091 -0.64528745 0.25523177
000140 47 a7 03 bf 30 d5 f9 be aa d4 63 bc b3 dc 2b bd
       -0.5142712 -0.48795462 -0.0139056835 -0.041958522
000150 2e c9 de 3e ea dc 7e be 89 5a b7 be e6 4f 88 3e
       0.43512863 -0.2488896 -0.3581126 0.26623458
000160 62 1d 88 be 62 ab 11 3e 4d 9b 2a 3f eb 4b a1 bf
       -0.26584917 0.14225534 0.6664322 -1.2601293
000170 c5 fe 25 3f c4 cb 11 3e ea a5 e6 be 49 d8 b0 be
       0.6484187 0.14237887 -0.45048457 -0.34540012
000180 13 13 28 3e 96 f5 13 3e f8 ef 84 be 39 a4 1d be
       0.16413526 0.14449152 -0.25964332 -0.15394677
000190 ad 87 14 3f 38 32 84 3d 21 3e bc 3e c4 cc 86 3e
       0.58019525 0.06454891 0.3676615 0.263281
0001a0 25 0f f5 be 11 75 33 bf 00 f9 28 3f a7 f4 26 3d
       -0.47863117 -0.70100504 0.66004944 0.040760662
0001b0 65 ea f7 3e 94 20 4e 3e 75 69 69 3e f1 b1 af 3e
       0.48421016 0.20129615 0.22794135 0.34315446
0001c0 ee 81 e6 3e b0 af e9 be 38 5c 57 3d d6 1c d3 3e
       0.45021003 -0.4564185 0.05257818 0.41232938
0001d0 6d 42 d0 3e e5 19 d4 3e 12 09 be be 8a 8e b5 be
       0.4067568 0.41426006 -0.37116295 -0.3546031
0001e0 78 36 dc be f0 48 00 bc 20 69 06 3f b2 5f 8e be
       -0.43010306 -0.00782989 0.5250416 -0.27807385
0001f0 53 64 cc 3e 55 29 68 be 8e 26 0b bf c3 89 c8 bd
       0.3992029 -0.22672017 -0.54355705 -0.09791901
000200 b9 10 ec 3e 3d 3d 48 3f 94 92 c7 be e1 6d 15 bd
       0.46106508 0.7821844 -0.38979018 -0.03648174
000210 a3 b5 02 3f 9a 52 a8 3e 93 c8 56 3e 43 a3 36 3f
       0.51058406 0.3287552 0.2097495 0.7134287
000220 75 40 d4 3e 8b 66 fa 3d 21 c9 af be ce db e0 be
       0.41455427 0.1222659 -0.34333137 -0.43917698
000230 24 3a 5d be 09 01 1f 3d 47 5d af be 5f 50 37 3e
       -0.2160421 0.038819347 -0.34250852 0.17901753

fea_conv.dw.weight f4 [48, 1, 3, 3]
000000 2c 3e a8 bc 82 86 ad 3c 61 1d 8a bd 11 88 95 3e
       -0.020537458 0.021182302 -0.06743885 0.29205373
000010 8f 6c 59 3f 6c a8 c8 3e ed e4 94 be 0e 8b b7 3e
       0.8493127 0.39190996 -0.29080907 0.35848278
000020 93 d6 0a be 49 97 27 3c 36 3c aa be 4b 77 6a 3e
       -0.13558416 0.01022894 -0.33249062 0.22897069
000030 9d fe 85 be e5 c5 b4 bf b1 58 f0 3e 30 09 b1 bd
       -0.26170817 -1.4122893 0.46942666 -0.086443305
000040 89 ee 73 be 13 1e 18 3e d1 08 df 3d 97 0b 8a 3e
       -0.23821463 0.14855222 0.108903535 0.26961967
000050 6a ae c6 bd e1 89 2a 3e 63 af 32 be 3d 01 b5 3c
       -0.097012356 0.16654159 -0.17449717 0.022095317
000060 aa 4f 2d be 35 52 09 be f5 ca 06 be b1 a6 a5 3d
       -0.1692492 -0.13410266 -0.1316336 0.080884345
000070 3b 33 da bb cf 9a 14 bd a7 8e a4 3e e6 ef ad 3e
       -0.006658939 -0.03628045 0.32140085 0.3397209
000080 35 de 3e 3e 97 db 2b bd c2 68 84 be 8f 3a 41 3e
       0.18639453 -0.041957464 -0.25861174 0.18869995
000090 31 2c 1e bb 71 d6 2f 3e 3b e4 0b be c4 16 4f 3e
       -0.0024135227 0.17171647 -0.13661282 0.20223528
0000a0 97 48 e5 be 72 94 1b 3f 64 c1 a9 be 2c 83 8d bd
       -0.44781944 0.60773385 -0.33155358 -0.06909785
0000b0 ef c5 cb bd e0 f1 8a be 84 ac 74 3e 60 22 6e be
       -0.09949862 -0.2713766 0.23893934 -0.232553
0000c0 1a 46 90 be b4 ff 9f bd 03 ae fb 3e c4 8e 38 be
       -0.28178483 -0.078124434 0.49156198 -0.18023211
0000d0 5b 98 5c 3e 89 94 da 3d a8 fc 6b 3e 99 e8 8e be
       0.21542494 0.10672862 0.230456 -0.27911833
0000e0 3c 82 62 3d 0f f6 88 be fb 76 f7 3e fd f7 75 be
       0.055299982 -0.26750228 0.48332962 -0.24020381
0000f0 47 27 0a 3e 9c 10 99 bc 74 e0 96 bd 57 e2 97 bd
       0.13491546 -0.018684678 -0.0736703 -0.07416218
000100 bb 2a e4 3b 13 2f bc 3d d6 9b 98 ba 39 65 b7 3d
       0.0069631017 0.09188666 -0.0011643122 0.089548536
000110 5e 76 b9 be 59 67 35 3e c7 e9 84 3e 90 37 5a 3e
       -0.3622312 0.17715205 0.25959608 0.21310258
000120 ce 28 a6 3c 0a 38 c0 be 51 27 91 3d 06 83 fe 3e
       0.020283129 -0.37542754 0.07087577 0.49709338
000130 4f e8 0b bf f3 5f 26 3f 24 95 1d be ae 09 71 be
       -0.5465135 0.64990157 -0.15388924 -0.23538849
000140 d8 a8 85 3d 01 b4 8f be c2 70 9a be 11 f7 ba bc
       0.06526345 -0.2806702 -0.30164152 -0.022822889
000150 34 55 b6 3e e9 56 8c 3f 31 c0 80 bc 37 ff 7f be
       0.3561188 1.0964023 -0.015716644 -0.249997
000160 2d fc c5 3e 84 3b 20 bd b6 35 b4 bd 93 7e 61 3d
       0.38668957 -0.03911926 -0.08799307 0.05505235
000170 57 95 54 be ac 64 7a 3e 01 b0 b3 3e 77 34 8c be
       -0.20760094 0.24452466 0.35095218 -0.27383777
000180 14 61 64 be 3c 65 06 b9 8c 69 1c 3e c2 0b b9 3b
       -0.22302657 -0.00012816949 0.15274638 0.0056471536
000190 b8 fc 30 be 49 86 1f 3d ad 8f a6 be ef b3 a0 be
       -0.17283905 0.038946424 -0.3253149 -0.31387278
0001a0 61 84 57 be 6a d3 88 3e 8d cc 8c 3e b1 aa c1 bd
       -0.21046592 0.26723796 0.2749981 -0.09456385
0001b0 6a 6d 4d bd 3f 06 d7 3d 30 77 0b bd 12 fa 58 be
       -0.050153174 0.10499238 -0.034049213 -0.21189144
0001c0 a2 08 44 3e 12 51 12 3e 89 b1 b5 bd 38 2c cf bd
       0.19143918 0.14288738 -0.08871753 -0.10115856
0001d0 f4 f0 53 3e cb 27 30 3e 4a 10 f0 3e 89 e9 a4 3e
       0.20697385 0.1720268 0.46887428 0.32209423
0001e0 55 31 73 3d ab 1b e3 be 9f 83 0c 3f 7e 42 cf 3b
       0.05937322 -0.44357046 0.5488834 0.006325065
0001f0 17 e4 6b 3b a6 2c 0d be 4b c8 0a 3e f4 50 e9 3e
       0.0035994106 -0.13786563 0.13552968 0.45569575
000200 49 5f b5 3d e3 53 e9 3e e4 b8 3d bf 4e 04 6a be
       0.08856065 0.45571813 -0.74110246 -0.22853205
000210 02 42 3b be 31 37 5d 3d 77 bf b9 bd 2e f2 5d 3c
       -0.18286899 0.054007713 -0.09069722 0.01354651
000220 d8 37 bc bd 19 44 f8 3d f7 77 b8 3e cd 6d 6f 3e
       -0.09190339 0.121223636 0.36029026 0.2338173
000230 df 13 40 bd 4d 8b d6 bd 2a 6d 0f bf 62 e6 db 3d
       -0.04689395 -0.10475788 -0.56025946 0.107373014
000240 1d 24 0e bd 66 f6 8f 3d 0f 45 0e bd cd b9 54 be
       -0.03470241 0.07029419 -0.03473383 -0.20774002
000250 07 29 a3 3e 2a 5a 3b 3e eb 0d fd 3c 55 bc 38 be
       0.3186724 0.18296114 0.030890426 -0.18040593
000260 cc ce 12 be b0 80 d8 3d 54 3e 70 be 0c 5f 41 be
       -0.14336699 0.1057142 -0.23461276 -0.18883914
000270 7e 0a 5d 3d 35 2f a6 bc 9e 8c 7f 3e e5 dd 8e ba
       0.053965084 -0.020286182 0.24955985 -0.001089987
000280 2c bf 62 bd f4 bb 2f bc 10 1a 63 be 82 f3 75 3e
       -0.055358097 -0.010725964 -0.22177911 0.24018672
000290 6e b5 60 bd 98 2f 9f 3e 6d 62 1a bd e8 c9 09 be
       -0.054860525 0.31091 -0.037691522 -0.13455927
0002a0 0b 01 80 be 8e 45 d7 bd 1e 5f 88 3e df e2 e6 be
       -0.25000796 -0.105113134 0.2663507 -0.45094964
0002b0 6c bd 87 bc 29 c7 ba 3e e5 e0 88 3e 4a 5b 39 ba
       -0.016569816 0.36480072 0.2673408 -0.0007070793
0002c0 ff 90 0d bd bf 29 ec bd 37 27 02 be 3d 84 75 bd
       -0.034562107 -0.115314 -0.12710272 -0.059940565
0002d0 db ac 06 3e 6c 7e eb bd 02 c0 07 be 7b 8b 3d 3d
       0.13151877 -0.114987224 -0.13256839 0.046275597
0002e0 fb c2 e5 be b3 79 e5 bd f6 77 56 3e 18 02 10 3e
       -0.4487532 -0.11204853 0.20944199 0.14063299
0002f0 46 82 8b 3e 80 0d 33 bb 80 70 e6 3d 26 08 5d 3d
       0.27247828 -0.002732128 0.112519264 0.05396285
000300 df 06 5d be 26 8f 6a bf f6 f4 92 3e 9b 0c a5 3e
       -0.21584652 -0.9162468 0.28702515 0.3223618
000310 7b 23 4b 3e a1 00 b6 bd b2 a7 7b be b1 bd cd 3e
       0.19837753 -0.08886839 -0.2457569 0.40183786
000320 d6 f9 cb 3c 28 a5 9e bd d8 fb 38 be ae aa ef bd
       0.024899404 -0.07746345 -0.18064821 -0.117024764
000330 d8 77 82 be f3 d8 49 be 17 60 76 3e 24 4b 04 3d
       -0.2548206 -0.19711666 0.24060093 0.032298222
000340 d4 7d 0f be 76 e2 07 be d2 95 56 3e 41 c1 e0 3e
       -0.14012843 -0.13269982 0.2095559 0.4389744
000350 9f ed a8 3e 7b 06 8b 3c 56 b3 70 bc 08 12 97 bd
       0.3299379 0.016970864 -0.0146911945 -0.07376486
000360 f9 0d f5 bd 2e 5a 97 be 9a d6 96 3e 76 7b 0b bc
       -0.11965556 -0.2956099 0.29460603 -0.008513322
000370 1d 2b 39 3e bc 55 53 3d 7a 8f 72 be d9 c9 e5 bd
       0.18082853 0.051595435 -0.23687544 -0.1122014
000380 65 4d 10 3e a2 5c 56 bd 01 0d a9 be 1d 6e 11 3e
       0.14092024 -0.052334435 -0.33017734 0.14202161
000390 f0 bc c4 3c 6f 61 26 be 7a 27 3f 3e e8 36 49 3d
       0.024015874 -0.16248105 0.18667403 0.04912463
0003a0 a3 08 23 be ba 2d 9a 3e b0 1a 18 3e 52 3f a7 3c
       -0.15921263 0.30113012 0.1485393 0.020415936
0003b0 52 77 ab bd c1 31 ae be 63 e5 bc 3e 44 28 0d be
       -0.08372368 -0.34022334 0.36893758 -0.13784891
0003c0 8d 21 5f be ca 26 49 3e 59 de b5 3d a5 e4 97 bb
       -0.21790142 0.19643703 0.088803 -0.004635411
0003d0 bd 68 f1 bd f0 6d 39 be b0 cc e8 3c a2 42 94 3e
       -0.11787555 -0.18108344 0.028417915 0.28957087
0003e0 8a cd 52 3c b4 45 7a be 6d e4 9a 3e 14 a9 87 bd
       0.012866387 -0.24440652 0.302524 -0.06624046
0003f0 e3 3b 0c 3e 8e ce ce 3d 07 5c 10 3d 68 20 74 3e
       0.1369472 0.10097991 0.035244014 0.23840487

fea_conv.dw.bias f4 [48]
000000 7b 02 81 bc d0 b4 27 be 72 3b ef 3d 5b ba 1d be
       -0.015748253 -0.16377568 0.1168126 -0.1540312
000010 f2 e9 ff 3b ff e3 19 3e 69 9e 99 bd ed c2 b0 3e
       0.007809871 0.1502838 -0.075009175 0.34523717
000020 ca ad 5d bb da 27 27 be 03 e4 14 be e5 04 35 3e
       -0.003382551 -0.16323796 -0.14540105 0.17677648
000030 34 84 0b 3d 5d 63 44 3e 58 e3 b9 3d 0e 1f 67 3e
       0.034061626 0.19178529 0.090765655 0.2257044
000040 30 71 5e 3e e1 38 15 3e 57 d7 40 3b 6d eb 09 3e
       0.21722865 0.14572479 0.0029425228 0.13468714
000050 a8 07 09 3e b6 af 0d bc 4c ba 43 bd 18 58 8f 3e
       0.13381827 -0.00864785 -0.04778509 0.27996898
000060 4a e1 33 3e 45 9a ee 3c 1e 1e 75 3e a7 97 5b 3e
       0.1756641 0.029126296 0.2393727 0.2144457
000070 5f 96 06 be 6b 43 1c be 46 5f f6 3d 52 06 7e 3e
       -0.131433 -0.15260093 0.12029891 0.24807099
000080 b4 d1 94 3c ad f2 14 3e ad b3 b5 3d c9 b8 09 be
       0.0181664 0.14545698 0.08872161 -0.13449396
000090 9d 0f a7 bd 8e 25 08 3d 79 76 95 3d 20 25 20 3e
       -0.08157275 0.03323894 0.072979875 0.15639162
0000a0 79 38 48 3d 87 37 e6 bb fa 75 95 3e 19 53 34 3e
       0.04888198 -0.0070256623 0.2919157 0.17609824
0000b0 90 0d 90 bd b2 93 ca bd bd cc 27 3e 1e e1 b0 3d
       -0.07033837 -0.09891452 0.16386695 0.08636688

B1.c1_d.weight f4 [24, 48, 1, 1]
000000 0e 83 be bb 51 6c 2a 3e 06 22 c2 3c 8d 56 61 3e
       -0.005813963 0.16642882 0.023697864 0.22005673
000010 bb fb e5 bc c5 10 68 3b e9 08 a6 bb 46 ac b5 bd
       -0.028074136 0.0035410386 -0.00506698 -0.08870749
000020 d0 9d a2 bd 02 dd de bd 35 4e 65 bd 72 b4 fc 3d
       -0.079402566 -0.10881998 -0.055982787 0.12339105
000030 03 cd 9c bb 5f 46 e1 bd 72 a3 e8 3c a0 29 b8 bd
       -0.0047851815 -0.1099975 0.02839825 -0.08992314
000040 d1 f1 58 3d bd 55 b3 bd 31 1c 81 3d 08 ec 2c 3e
       0.05296499 -0.08756588 0.06304205 0.16886914
000050 5e 7e c7 3d b9 d7 0b 3e ec db a1 3d 6e ad 57 3d
       0.097408995 0.1365651 0.07903275 0.05265563
000060 7e 94 d2 be 21 f6 46 be 2c e4 ae 3d 2f 8d ec 3d
       -0.41128916 -0.19429828 0.08539614 0.11550366
000070 e2 9f 87 bd e0 7a 38 bd 7e 41 29 3d 7c 23 fc bd
       -0.06622292 -0.045039058 0.041322224 -0.123114556
000080 54 a2 46 bd 28 e5 1b bd 06 9b 88 3d 28 f4 b4 bd
       -0.048494652 -0.038060337 0.066701934 -0.088356316
000090 dd e1 9a bd cf 35 ba 3e 37 e6 3e 3e d0 2d 28 bd
       -0.07562611 0.36369178 0.18642507 -0.041059315
0000a0 dd df d0 bd a9 2e f7 bc dc 72 db 3d ea bb cf 3c
       -0.101989485 -0.030173616 0.10715267 0.02535816
0000b0 09 a0 b8 be e8 a4 ba 3d ac 26 2c 3e 48 16 0a be
       -0.36059597 0.091134846 0.16811627 -0.13485062
0000c0 99 51 92 be cb b1 11 bd 63 42 10 bd f9 1d cf 3e
       -0.2857788 -0.035569947 -0.03521956 0.40452555
0000d0 db b0 5e 3d 85 cd 0e bf c0 f1 7f be 4b f9 27 3e
       0.05436788 -0.5578235 -0.24994564 0.16403691
0000e0 ff 42 bd 3e 07 f3 1a bc 57 f4 a9 be e6 38 0b 3e
       0.36965176 -0.009457356 -0.3319423 0.13595924
0000f0 9e 9c 6b 3d ee 53 8b be 1c cd a7 3c b7 46 38 be
       0.05752241 -0.2721247 0.020483546 -0.17995726
000100 dd bb d3 bd cf 47 44 be 52 ba e2 3e 8c 31 b6 bd
       -0.103385665 -0.19168018 0.44282776 -0.08896169
000110 e9 2f 86 bd 77 14 59 be 7a 67 95 bc fd 4c 7a be
       -0.06552107 -0.21199213 -0.018237818 -0.24443431
000120 ab 30 2f 3d c3 12 7f 3e 06 68 80 3e 83 1f f3 bb
       0.042771023 0.24909501 0.25079364 -0.007419528
000130 50 96 28 be 68 71 a8 bd 68 78 2c 3c 71 1f fa bd
       -0.1646359 -0.082247555 0.010526754 -0.12213028
000140 26 cd f0 be 05 51 c8 be a6 e4 3a bd 74 98 62 3d
       -0.47031516 -0.39124313 -0.045628212 0.055321172
000150 d7 fe 2a 3e dc 4c 01 3e 83 23 67 bd 18 b7 03 3e
       0.16698776 0.12626976 -0.05643035 0.12862813
000160 e5 87 48 bf a8 0d 75 3d 3b 0b 02 bd db 47 d7 3d
       -0.7833236 0.059827477 -0.03174899 0.10511752
000170 18 e3 5c 3e 39 f6 b2 3c 10 ca 00 3e db f9 c6 bd
       0.21571004 0.021845924 0.1257708 -0.09715625
000180 34 a1 d1 bd 38 d8 92 3e ba 4e d8 bc 57 80 dc bd
       -0.10235825 0.28680587 -0.026404727 -0.107666664
000190 1d 38 5d 3e 29 eb 4e 3e 20 e1 b6 3e ef 75 c6 bd
       0.21603437 0.20206894 0.35718632 -0.09690463
0001a0 44 a3 5e 3d 0a f5 49 be b9 0a 9b 3e f9 61 1f 3e
       0.05435492 -0.19722381 0.30281618 0.15564717
0001b0 87 3d 33 3b c5 4e 23 bc aa 46 7c 3e 3d d8 20 3e
       0.0027349906 -0.009967511 0.24636331 0.15707488
0001c0 d5 75 a6 bc 68 aa 4e bd 26 d1 fc 3d f3 3b 22 bd
       -0.020319859 -0.05045548 0.123445794 -0.039607953
0001d0 e9 5e 67 be 91 90 64 3c 0f 76 7a 3e ad 3f 0d 3e
       -0.22594799 0.013950483 0.24459098 0.13793822
0001e0 e4 d8 87 3c af 55 81 3d aa b4 04 3c 00 d9 0f 3d
       0.016582914 0.06315171 0.008099714 0.035119057
0001f0 31 22 c3 3d ad a4 48 bd f2 70 22 3e 19 e2 84 3e
       0.09528006 -0.048985172 0.15863398 0.2595375
000200 80 f1 a3 36 ff c5 9c 3e 74 f4 bc bd 8a 5c 19 bd
       4.885893e-06 0.3061981 -0.09226313 -0.037441768
000210 2b 4f 95 3e 03 ad 8c 3d 8b f8 60 bd b2 1e ee 3c
       0.29161963 0.06868937 -0.05492453 0.029067371
000220 02 ec dc bd d2 a7 82 3b bb 58 10 3e bc 84 8f be
       -0.107872024 0.003987291 0.14096348 -0.28030956
000230 56 dc c3 bd 6e bd de bd e5 c3 cc bd 80 28 9e 3d
       -0.0956351 -0.108759746 -0.099983014 0.077225685
000240 51 ba b1 be 59 3b 57 3c de 0d ad bd cf fd 29 3e
       -0.3471246 0.013136708 -0.084499106 0.16600727
000250 3f 8e 8b be c9 f6 97 bc 76 a4 f6 3c b1 59 50 3d
       -0.27256963 -0.018550294 0.030107718 0.050866786
000260 88 58 be bc af 07 98 3e 81 c1 17 bd d7 79 05 bd
       -0.023235574 0.29693362 -0.037049774 -0.0325869
000270 74 b1 be bd cd e9 f8 3e 49 45 aa be 25 df 3c 3d
       -0.0931119 0.48615876 -0.33255985 0.046111245
000280 78 fc be bd a2 c6 01 be a1 da f0 3d 02 1d f3 bd
       -0.09325498 -0.12673429 0.1176045 -0.11870767
000290 93 51 76 3e af 8a d1 3c 54 69 9e be e6 3b d2 3d
       0.24054556 0.025578825 -0.30939734 0.10265331
0002a0 0a 03 14 3e cc c8 a7 bc 6b 8a e3 3c b0 2b f3 bc
       0.14454284 -0.02048149 0.027775964 -0.029683918
0002b0 48 e6 19 bc 52 e9 be bc 61 61 1b bf a7 e9 5b bd
       -0.009393282 -0.023304615 -0.60695463 -0.053689625
0002c0 84 68 24 be d1 83 51 3c 0e 1f 5c 3e e9 87 6d 3d
       -0.16055495 0.012787775 0.21496221 0.057990942
0002d0 0d ae c0 bd 8c b8 bd 3d 71 63 32 3d 84 59 98 3e
       -0.094081976 0.09263715 0.043551866 0.29755795
0002e0 40 70 26 3d 80 fa 3e be 1e 21 64 bd c5 b1 9a be
       0.040634394 -0.18650246 -0.055695646 -0.30213752
0002f0 2c dd 2d 3d c9 8f 24 3c 15 b9 c0 bc de ef db 3c
       0.042447254 0.010044047 -0.023525754 0.026847776
000300 94 04 3b 3f 55 12 1e be 53 16 3e 3e b1 04 3e be
       0.7305386 -0.1543668 0.18563204 -0.18556477
000310 ca 3e ff be dd 9c 3d bd b5 96 9d be ec 10 69 3e
       -0.49852592 -0.046292175 -0.30779043 0.22760361
000320 33 83 0f 3d 3a 85 40 3e 75 a4 66 be f0 00 4c be
       0.03503723 0.18800822 -0.22523673 -0.19922233
000330 ec ea 68 be 34 e9 86 be cf a2 56 bd 40 68 b7 bc
       -0.22745866 -0.26349795 -0.05240136 -0.022388577
000340 56 81 65 3d 6d a0 39 be 12 d0 c9 bd 2d 2e 30 3e
       0.056031547 -0.18127604 -0.098541394 0.17205115
000350 c5 07 3d 3e 68 1a 88 3d 6b ba fc bd 89 4c 5e bc
       0.18459995 0.066456616 -0.12340244 -0.013568052
000360 db b6 a8 3b aa 6c 82 3d 2d 7a c4 3d 93 7e e1 3d
       0.005148751 0.06368382 0.09593616 0.1101047
000370 8a ac d0 bc 81 67 21 bc d6 6c 65 3c 97 67 50 bd
       -0.025472898 -0.009851337 0.014002999 -0.05088004
000380 f0 7a 29 be 2a 9d 1d bc 55 c8 ac be 40 19 8c 3b
       -0.16550803 -0.00961999 -0.3374659 0.004275471
000390 a8 83 17 bf a5 de 06 be 03 8b 8d be 32 e1 ff bb
       -0.59185266 -0.1317087 -0.2764512 -0.007808828
0003a0 5a df 7f 3e 28 de 41 3e 33 50 54 be e4 a4 79 bb
       0.24987546 0.18932402 -0.20733719 -0.0038092667
0003b0 ac 4b 3e 3d 42 e8 08 3e 06 39 b2 be 6e e5 a0 bd
       0.046458885 0.1336985 -0.3480913 -0.0785626
0003c0 b7 44 94 bd 23 26 6b 3e 62 10 35 be cd 98 59 be
       -0.07239669 0.22963767 -0.17682031 -0.21249695
0003d0 81 20 a5 3e f1 ec 56 3e 4e 35 28 3c 25 5d ed bd
       0.3225136 0.20988823 0.010266615 -0.115900315
0003e0 82 c0 8c be f7 18 ab bd a4 63 77 3e c6 c6 97 bd
       -0.27490622 -0.08354371 0.24159104 -0.0741096
0003f0 f9 35 a0 bc 5e 18 79 be d3 b8 05 3e 74 db 2c bd
       -0.019556986 -0.24325702 0.13058786 -0.042201474

B1.c1_d.bias f4 [24]
000000 84 a5 ee 3d 10 d4 98 bd 79 cb 09 3e f7 23 12 3d
       0.11652663 -0.07462323 0.13456525 0.03567883
000010 97 c1 53 3d bf 83 e9 bc 2f fa 92 bd 17 68 0d 3e
       0.051698294 -0.028505204 -0.07176625 0.13809238
000020 3b 0f ed 3d fb 68 6c bd d8 17 df bd 00 70 d8 bc
       0.115751706 -0.057717305 -0.1089322 -0.026420593
000030 51 b8 ec 3d 35 86 54 3c 8f 61 7a bd 6c 7a 90 3d
       0.11558593 0.012971451 -0.061128195 0.070546
000040 bf 41 27 3c 85 73 32 3e fd c8 c2 3d 9b f6 1b 3e
       0.010208546 0.1742688 0.09510992 0.15230791
000050 95 ec b0 bb 31 69 32 3d 1a 53 15 3e 4b ce 86 bb
       -0.0053992965 0.04355735 0.14582482 -0.0041139475

B1.c1_r.pw1.weight f4 [12, 48, 1, 1]
000000 77 6b 16 3f 77 6c fd bd c6 c3 18 3d 0b ff 8a 3d
       0.5875773 -0.12374204 0.03729608 0.06786927
000010 fc 63 ca be 3d 02 c0 3c df 75 a3 3e 28 36 13 3e
       -0.39529407 0.023438567 0.31925866 0.14376128
000020 a6 d0 d8 bd f3 6d 36 3e 8a 3c 63 3d f0 5d c9 3d
       -0.105866715 0.1781538 0.055477656 0.0983237
000030 a0 81 50 3d 77 97 c5 bd 80 04 c7 bc 2b ac ec bd
       0.05090487 -0.0964803 -0.024294138 -0.11556276
000040 07 fc 65 bd 56 96 d5 bc 2d c0 c1 be f4 f3 ec 3d
       -0.056148555 -0.026072662 -0.3784193 0.11569968
000050 0e 4d 77 3d 4a 7d c3 be 0d 6c 81 be 16 41 f3 bd
       0.06037622 -0.38181525 -0.2527775 -0.118776485
000060 d6 b2 f5 3b f4 41 ca 3e 85 9d f4 bd 4c 77 71 3d
       0.0074981255 0.39503443 -0.11944107 0.05895166
000070 f3 65 25 3e 8a e8 88 bd 22 5b 4c be 7f 02 65 bd
       0.16152172 -0.06684978 -0.1995664 -0.055910584
000080 bb c4 5a be 2c 4a 30 3e 84 ad 76 bd 4a da 08 be
       -0.21364109 0.17215794 -0.06022407 -0.1336452
000090 e8 95 3d 3d 7d e8 b0 3e a0 ec 72 be ea 49 94 be
       0.04628554 0.34552374 -0.23723078 -0.28962642
0000a0 cc 81 ce 3e b4 fc 74 bd eb 80 23 3d dc b6 14 be
       0.40333402 -0.05981131 0.039917868 -0.1452288
0000b0 4c e3 ee bb df 4e 16 3e 92 81 61 be 9b f3 17 bc
       -0.0072902795 0.14678524 -0.22022083 -0.009274389
0000c0 6c 97 be be 3d ca 3a 3f f6 60 5f be d9 ba 00 3c
       -0.372249 0.7296484 -0.21814331 0.007857048
0000d0 52 8a dc 3e 04 8b 98 be c4 ab e8 be 83 ec fb 3d
       0.4307428 -0.2979356 -0.45443547 0.123009704
0000e0 dc 92 2a 3e 99 38 f2 be d9 1b 8e bd 0d 0b b8 bd
       0.16657585 -0.47308806 -0.06938905 -0.08986483
0000f0 78 da ba bd a6 6b 30 bd 98 96 18 bd 64 76 54 be
       -0.09123701 -0.04307141 -0.037252992 -0.20748287
000100 ec 69 1b be 2e 5d 5b bd 9f a7 1c 3f 68 cb 04 be
       -0.15177125 -0.05355566 0.6119327 -0.12968218
000110 ff 7f 6d bd 8d b7 47 be 02 e3 bc be d7 4a 71 bd
       -0.057983395 -0.19503613 -0.36891943 -0.058909263
000120 38 8d 7c be 68 8c 97 bd ae 92 8c 3d 1a 64 d2 3b
       -0.24663246 -0.07399827 0.068639144 0.0064206244
000130 2f af 40 3e fd 1a 2d 3e 39 67 13 3f af 72 47 be
       0.18816827 0.16904826 0.5757938 -0.19477342
000140 25 31 86 bc 1a 73 59 bd 05 d6 b9 bd 9e eb 4e 3e
       -0.016380856 -0.053088285 -0.09074024 0.20207068
000150 01 1d 47 be 03 8b 2a bd b5 7c 09 be 8e 75 c5 3d
       -0.19444658 -0.04163648 -0.13426478 0.096415624
000160 d9 0d 1c bf 77 e2 45 be 84 1b e7 bd a8 2c 8c 3d
       -0.6095863 -0.1932467 -0.11284545 0.06844455
000170 1b 2a ce 3d 3e 0e 2d 3e 50 9c ab bd 77 b2 04 3e
       0.10066625 0.16899964 -0.083794236 0.12958704
000180 e8 8e 41 be 83 ce 3a bf c1 ed d9 bc 06 32 02 3e
       -0.1890217 -0.7297136 -0.026602628 0.12714395
000190 31 2d bd be b8 8e c1 3d fd 2f 96 be 9a cd d4 3d
       -0.3694854 0.094510496 -0.29333487 0.10390778
0001a0 2b 0e ba be 56 e9 0a 3f c4 58 06 be 47 a1 c6 3d
       -0.36338934 0.5426229 -0.13119799 0.0969873
0001b0 f6 c9 6a bc 80 16 db 3d 40 9d 19 bd 71 99 10 3e
       -0.014330378 0.10697651 -0.03750348 0.14121033
0001c0 71 87 47 3e 45 73 b6 3d f0 50 a5 3c f0 82 a4 3d
       0.1948526 0.08908705 0.020180196 0.08032787
0001d0 cd 33 bf bc 6a 8b db 3d 38 03 76 3e 2c 5d f4 bd
       -0.02334013 0.107199505 0.24024665 -0.119318336
0001e0 10 03 15 be c1 5a 17 be 3f f3 08 3d 53 d2 66 bd
       -0.1455195 -0.14780714 0.033435103 -0.056352925
0001f0 5a 35 1f be cb 01 09 bc 59 6a fa be af 22 6b 3c
       -0.15547696 -0.008362244 -0.48909262 0.014351531
000200 4b 5a 87 bd dd ec 84 be 2f 14 a8 be 01 70 4a 3c
       -0.06609019 -0.25961962 -0.328279 0.012355805
000210 df da 11 be 61 08 02 3e 39 3a 3b bd c8 b6 05 3e
       -0.14243649 0.12698509 -0.045709822 0.13058007
000220 2e 27 48 be fb 07 8d 3e f9 48 2a be d1 d3 44 3d
       -0.19546196 0.2754515 -0.166294 0.048053566
000230 cc 53 e3 bd a3 a9 b5 3c 39 bc 96 bd 47 fd 7c bc
       -0.11099967 0.022175616 -0.073601194 -0.015441245
000240 47 bf 9d be 64 fd c1 be 52 a1 4b 3e 4f 7e e5 be
       -0.30809996 -0.37888634 0.19885758 -0.44822928
000250 7d 66 a9 3b c7 d3 8b be 79 95 8d be af f1 13 3e
       0.0051696883 -0.2731001 -0.276531 0.14447664
000260 9b 58 c0 bd e4 a8 c7 3e d1 94 86 be 64 d8 ed bd
       -0.093919 0.3899604 -0.26285413 -0.11613539
000270 8c e4 11 be b6 a8 ad 3c e5 17 cd bc 78 be d7 3d
       -0.1424734 0.021198612 -0.025035808 0.10534376
000280 e0 04 b2 3e 84 8a 01 3e 6f 17 80 3e da 1c 90 3d
       0.34769344 0.12650496 0.25017878 0.07036753
000290 7d c7 b0 3d 28 11 01 3e 3a cc 40 3e 53 ee 99 3d
       0.08631799 0.12604201 0.18827906 0.0751616
0002a0 20 51 7f 3e 37 e6 64 be 7d ff 44 3d 69 3e 88 3d
       0.2493329 -0.22353445 0.048095215 0.06652529
0002b0 80 12 e9 bb 18 79 d2 3d a0 c3 8c be 84 a6 0b be
       -0.007112801 0.10277003 -0.27493 -0.1363774
0002c0 08 24 30 be 1c d6 c3 bd df d8 67 be bc 3c 39 3d
       -0.17201245 -0.095623225 -0.22641324 0.045223936
0002d0 e0 74 a1 be 71 89 1e be dc 85 e7 bc 56 a0 01 3e
       -0.3153448 -0.15482117 -0.028262071 0.1265882
0002e0 f9 bd 1f bf 49 40 c9 3d 60 f3 90 3b ec d3 57 3d
       -0.6239925 0.098267145 0.004423544 0.05269234
0002f0 69 6f a8 3e 25 ed 64 3e c9 e2 86 bd 51 42 9e be
       0.328975 0.22356088 -0.065862246 -0.3090997
000300 08 62 c7 3e da 8f d8 be 7a aa 1d 3e 2d 9f cd 3c
       0.3894198 -0.4229725 0.15397063 0.025100315
000310 4b ea b0 be d4 58 00 be e6 79 7e 3d b5 df 12 3d
       -0.3455375 -0.12533885 0.06212797 0.035857875
000320 4f 7b 02 3e ae 60 81 3e c2 a6 31 be 17 74 c4 3d
       0.12742351 0.25269073 -0.1734877 0.09592455
000330 5a c5 c0 3d 47 33 59 3d a6 7d 74 be a8 e7 d8 bb
       0.09412642 0.053027418 -0.23876056 -0.0066194125
000340 c1 e6 90 be fb e0 40 bc 23 78 4a 3d 0d 79 2f be
       -0.2830105 -0.0117723895 0.049430978 -0.17136021
000350 9b 00 ec 3d 39 27 68 bf 83 29 b5 3c 79 4b 26 be
       0.11523553 -0.9068485 0.02211452 -0.16239728
000360 9a f0 84 bd 3f 76 f9 bd 7a 26 0c be 98 56 b9 3b
       -0.064912036 -0.12180757 -0.13686553 0.0056560747
000370 de f2 0b be 23 11 28 be 54 ef d3 be 74 56 56 bb
       -0.13666865 -0.16412787 -0.4139353 -0.0032705339
000380 20 26 00 bb 17 21 75 be e8 c9 8e bd 37 30 08 bb
       -0.0019553974 -0.23938404 -0.06972104 -0.0020780691
000390 e2 a8 9e bd 35 4e 1d 3d 8b 86 b0 3c c3 db 98 3d
       -0.077470556 0.038404662 0.02154853 0.07463791
0003a0 f1 b7 19 be a3 ea 89 3c 49 13 b5 3d 3f 03 fe bc
       -0.15011574 0.016835516 0.08841569 -0.031007407
0003b0 60 0a 46 bd bd cd 15 bd 23 0f da 3d b2 bb 83 be
       -0.048349738 -0.03657316 0.10647418 -0.25729138
0003c0 5e d3 8e be e4 eb 89 bc 97 c3 8b be 7b 0b e0 3d
       -0.27895635 -0.016836114 -0.2729766 0.1093969
0003d0 b8 d9 bf 3e f6 7f dc bc 00 51 6b 3e 9f 9c 6a be
       0.37470794 -0.026916485 0.22980118 -0.22911309
0003e0 f8 b0 8f be 75 cb 04 3d 50 02 36 3e 5f a4 8b 3e
       -0.28064704 0.032420594 0.1777432 0.27273843
0003f0 ed 51 23 3d 7d cb 93 be 39 85 76 3e 67 03 2e bd
       0.039873052 -0.28866187 0.24074258 -0.042483713

B1.c1_r.pw2.weight f4 [48, 12, 1, 1]
000000 b2 52 39 bd 15 23 93 3e 0a 72 e4 bd bb e3 5b be
       -0.04524488 0.28737703 -0.11154564 -0.21473591
000010 66 e6 bd be d2 cb e2 bd 3f 80 c9 3c 16 04 15 3e
       -0.37089843 -0.11074032 0.024597285 0.1455234
000020 72 ea 24 3f 5a 96 98 bd 7a 84 98 3e 19 4b 43 be
       0.64420235 -0.07450552 0.29788572 -0.19071616
000030 0f 48 3d be 1d 7c bd be 11 ed 18 bf 9c 12 da be
       -0.1848452 -0.37008753 -0.59736735 -0.42592323
000040 39 79 12 bf 3f 8c 62 3e 0a 5a 62 bd 5d 8d 3a bf
       -0.5721622 0.22123812 -0.05526165 -0.72871953
000050 28 f8 ae 3d cf 3d be bc d9 64 54 3d c2 85 82 be
       0.08543426 -0.023222832 0.05185399 -0.25492674
000060 5f 25 35 be 44 a3 d4 3e 43 86 1b 3e d4 06 22 3f
       -0.17690037 0.41530812 0.15187936 0.6329167
000070 76 01 b5 3e c0 10 8f bd 4b 78 38 bf c5 24 3e bd
       0.35352677 -0.06985617 -0.7205855 -0.046421785
000080 c9 20 67 be b3 74 05 be 9b f1 cf 3e 29 50 95 be
       -0.225711 -0.13032798 0.40614018 -0.2916272
000090 85 be 8f be 0c 38 59 3e 97 a6 97 3e 1e e5 86 3e
       -0.28075042 0.21212786 0.29619285 0.26346678
0000a0 ae 1c 92 bc 90 9c de bd ca dc 96 bd 5d d9 00 3e
       -0.017835941 -0.10869706 -0.07366331 0.12582918
0000b0 b3 d7 6d 3e 24 3d 13 be f5 87 c7 3e d8 d5 96 3e
       0.23226814 -0.14378792 0.38970914 0.29460025
0000c0 fb 92 e1 bd fe 29 15 be f9 36 cd 3c e7 19 c5 bd
       -0.110143624 -0.145668 0.025050627 -0.09624081
0000d0 23 d0 11 bd 32 54 26 3e c7 f1 88 3d 38 10 2c 3d
       -0.035598885 0.16243055 0.0668674 0.042007655
0000e0 b6 3a 18 3e 23 b5 10 3f f2 c0 89 3d 24 9f cd 3d
       0.14866146 0.5652639 0.067262545 0.10040119
0000f0 9e 3f 05 bf 28 bf 0f 3d 94 f8 f5 3e 87 bc f8 3d
       -0.520502 0.03509441 0.48041213 0.12145334
000100 0c 6f 70 be e3 93 7a bc 9d a8 8b bd f3 a4 0f 3e
       -0.23479861 -0.015294048 -0.0681927 0.14027767
000110 c5 09 7b 3f b6 c0 32 3f 66 4b a5 3d 63 6c 3e 3f
       0.9806178 0.69825304 0.08071022 0.74384135
000120 1a c5 70 3d 04 17 b2 be 5b ae 54 3d 04 5e 90 3d
       0.05878172 -0.34783185 0.05192409 0.07049182
000130 20 5a 60 be 0b bc 28 3e 2d 68 d0 be c5 be 79 bd
       -0.2190938 0.16477983 -0.4070448 -0.060972948
000140 ce f1 70 3e a7 fc 11 3e 6d 22 58 bd e0 19 13 3e
       0.23529741 0.14256535 -0.052767206 0.1436534
000150 38 b0 69 bd ea e6 eb bd 5c 94 1b be 44 82 3c be
       -0.05705282 -0.11518653 -0.15193313 -0.18409067
000160 18 13 63 3e 2f 58 1d 3e 55 df bc be be cf 31 bb
       0.22175252 0.1536567 -0.3688914 -0.002713188
000170 90 05 0e be 38 6a 11 be 76 6e e7 3d 17 d1 af be
       -0.1386931 -0.14200675 0.113003656 -0.3433921
000180 3a 82 82 3c b3 aa 25 be 0a 85 07 be 54 8f a7 bd
       0.015931237 -0.16178398 -0.13234344 -0.081816345
000190 8e 9f 74 3e 77 42 92 bd 51 0b b5 bd c5 b1 eb be
       0.2388899 -0.071415834 -0.08840049 -0.46034065
0001a0 32 9e 1d bf 2f 1c 67 3e 72 33 dc bd 1e af e3 3d
       -0.6156951 0.22569345 -0.10752 0.11117385
0001b0 48 73 aa be a2 ee ac 3e 1f ba 38 bf b0 c2 11 be
       -0.33291078 0.33775812 -0.72159 -0.14234424
0001c0 84 cc 71 be c8 05 6c 3e c8 7e c4 be a0 76 b1 3d
       -0.23613173 0.2304908 -0.38377976 0.08665204
0001d0 e6 84 88 3d 15 1b 14 be 58 11 1a 3e bf 0e a3 3d
       0.06665973 -0.14463456 0.15045679 0.07961797
0001e0 98 2d 4c 3f 90 23 63 3f cf 35 fd 3e f4 a2 7d bf
       0.7975707 0.8872614 0.49455115 -0.9907677
0001f0 a1 9d 02 3c 0a ec 55 be d2 05 3e 3e ee 63 f4 be
       0.007972152 -0.20890823 0.18556908 -0.4773249
000200 57 d0 f9 3e c5 50 03 bf 09 ef 9a bf b3 f4 1b 3f
       0.48791763 -0.5129512 -1.2104198 0.60920256
000210 b2 0a 98 be aa c3 f6 bd db ba 1c 3e ee 91 3b bd
       -0.2969566 -0.12049039 0.15305655 -0.045793466
000220 0f e9 05 be 6a 1a dc 3e d9 97 58 3e 64 9c f2 bd
       -0.13077186 0.42988902 0.21151675 -0.118462354
000230 11 20 17 3d d2 fd 08 be fb be 1b 3d 43 19 4b 3e
       0.036895815 -0.13378075 0.03802393 0.19833855
000240 21 e6 36 bd 0b 91 3e be 79 84 8c be 5a 59 ee b9
       -0.04465306 -0.18610017 -0.2744482 -0.0004546147
000250 7d 01 62 3d 22 00 9f 3c dc 82 5f be 2f 3d 0e 3c
       0.0551772 0.019409243 -0.21827263 0.0086815795
000260 a7 e6 c2 3d 93 db 9c 3e 65 0f 69 be 61 4b 7c be
       0.0951665 0.30636272 -0.22759779 -0.2463813
000270 83 05 4b 3e b8 f3 e1 be c9 22 34 3f 30 71 51 3e
       0.19826321 -0.44131255 0.7036558 0.20453334
000280 b6 fa a4 3e c2 a4 3f be e7 e3 c4 3e 2a da 5d bd
       0.32222527 -0.18715194 0.38455126 -0.054163136
000290 07 0b 4c bd 7b 82 a8 3d 67 ac 05 be 56 fa d2 3d
       -0.049815204 0.08228012 -0.13054048 0.10301654
0002a0 a7 59 26 3f 48 7a c7 3e 93 41 31 be 66 b1 e8 3e
       0.6498055 0.3896048 -0.17310171 0.45447844
0002b0 40 53 9c be 64 2c 24 bf 7b 55 a3 3e 34 8e 90 be
       -0.30532265 -0.64130235 0.31901154 -0.28233492
0002c0 b0 3b e3 3e af 07 53 3e b7 84 a5 3b de f7 37 3f
       0.44381475 0.206084 0.0050512212 0.7186259
0002d0 59 af d5 3a 9c e5 49 be db e3 cd be 3f 35 a5 3c
       0.0016302868 -0.19716495 -0.40212902 0.020166991
0002e0 29 90 40 bc 81 04 c3 be f6 86 f5 3e 71 0f d4 be
       -0.01175312 -0.38089374 0.4795453 -0.4141803
0002f0 3c 62 a2 be 50 3b fc be d9 d7 01 be 68 3d bf be
       -0.31715572 -0.49264002 -0.12679996 -0.37351537
000300 3b b0 bb bd 85 4e fd 3d 06 f1 47 3e 15 cf 62 3e
       -0.09164473 0.12368492 0.19525537 0.22149308
000310 cc 2e 96 be 29 ed b1 3e ea c7 c6 3d 1a 02 b0 be
       -0.29332578 0.3475125 0.09706099 -0.34376603
000320 d5 c7 ce 3e a2 b7 10 bd 31 2d 3a be bb 06 08 3f
       0.40386835 -0.035331376 -0.18181302 0.5313527
000330 62 05 3e 3d 24 b9 44 3e 64 65 8b 3d 3c dc df be
       0.046391852 0.1921125 0.06806448 -0.43722713
000340 b1 e5 af 3e 88 17 9a be 4f 49 63 3e b1 b1 0d 3e
       0.34354928 -0.30096078 0.22195934 0.13837315
000350 16 33 27 3e a7 85 bf bd 22 4c a2 be 4a a7 70 3c
       0.16328081 -0.09351664 -0.3169871 0.014688322
000360 08 92 87 3d 68 d8 88 be fd 21 af be 65 f2 ad be
       0.0661965 -0.26727605 -0.34205619 -0.33973995
000370 88 5c ac 3d f7 e5 c0 3d 0e ef 92 be 6b 90 24 be
       0.084160864 0.09418862 -0.2869801 -0.16070716
000380 7c 64 d2 be 92 f8 df 3d 49 eb d5 bd 32 6c 2b be
       -0.41092288 0.10936083 -0.10445268 -0.16740492
000390 7b 43 16 be e7 0b ed 3d dc ab af 3d 27 c5 16 3e
       -0.1467418 0.11574536 0.085777014 0.14723645
0003a0 f6 80 25 3e 6d e1 2f be 76 14 25 3e 74 c0 e4 3e
       0.16162476 -0.17175837 0.16121086 0.4467808
0003b0 53 ca 7a 3e 6d a2 0f be f4 c1 19 be 0a 1d e3 3d
       0.24491243 -0.14026804 -0.15015393 0.11089523
0003c0 ce a0 f6 3d 0c c9 74 be a2 6a 47 be 7e b9 5e 3e
       0.1204239 -0.23904818 -0.19474271 0.21750447
0003d0 ba 7b a0 bc 56 75 53 3e 2f 06 36 3e 6d 37 94 3d
       -0.019590247 0.20650229 0.17775796 0.07237134
0003e0 83 35 be bd 28 21 10 bf fe d7 fa 3e 47 99 d0 3e
       -0.0928755 -0.5630059 0.48992914 0.4074194
0003f0 15 dc 2a 3f bd 8b 50 3d 09 bc 33 3e 50 ed 5d be
       0.6674207 0.050914515 0.17552198 -0.21672559

B1.c1_r.dw.weight f4 [48, 1, 3, 3]
000000 75 2d 1d 3b 25 2a 59 bd 98 6f b8 bc e3 c5 cc 3d
       0.0023983393 -0.053018708 -0.02251415 0.099986814
000010 fd c7 4d bf 77 48 18 bd 41 2a a3 bd f5 f7 ea 3d
       -0.8038328 -0.037178483 -0.07967044 0.11473075
000020 4a 99 30 bd 0c 4e 55 be 38 8d f4 be 29 6c 22 bf
       -0.043114938 -0.20830554 -0.4776399 -0.6344629
000030 15 41 b4 3e 39 df 76 be 22 3e 8a be 2f eb 00 bf
       0.35205904 -0.2410859 -0.2700053 -0.5035886
000040 1b d5 8c 3e 0d 83 a6 3e 35 a6 98 3c 00 ff 5b be
       0.27506337 0.3252186 0.018633941 -0.21483994
000050 be 18 95 3d 82 39 0f be cf af 4f 3f 39 2a 96 be
       0.0728011 -0.13986781 0.8112764 -0.29329088
000060 1e 1c a4 bd 45 21 0d bf 31 36 53 bd 13 cd eb ba
       -0.080131754 -0.5512889 -0.051565353 -0.0017990194
000070 96 7c 03 be 3b 73 89 bd 9f 15 08 bd fb 23 3f bf
       -0.12840495 -0.067114316 -0.033223744 -0.74664277
000080 bd 44 b1 bd 91 5e 70 3d a9 09 1d bd 4f a2 f2 3a
       -0.08655689 0.058683936 -0.03833929 0.0018511506
000090 5e 77 a0 3c c7 52 18 be 18 e4 96 be 74 b5 ad be
       0.019588169 -0.14875327 -0.29470897 -0.339275
0000a0 f0 90 a2 3e 16 94 63 bd 2e f9 14 be 0a 6a 64 be
       0.31751204 -0.055561148 -0.1454818 -0.22306076
0000b0 59 7f 93 3e 1c d7 8a 3d 61 94 e0 3d ca 83 f2 bd
       0.28808096 0.0677931 0.10965801 -0.11841543
0000c0 59 af dc 3e 0f 5e 32 bf 9e 08 f5 3d c0 cf 82 3c
       0.4310253 -0.6967477 0.11964534 0.015968204
0000d0 20 d4 d0 3d fe f0 3e bd ef 14 92 3c 53 32 88 be
       0.1019671 -0.046616547 0.017832248 -0.26600894
0000e0 69 94 e1 3c 34 da f8 3e 29 91 b7 be e1 48 ca be
       0.027536588 0.48603976 -0.35852936 -0.39508727
0000f0 de 94 75 bc 15 2b 3f be e4 94 c3 3b cc 47 aa bd
       -0.014989106 -0.18668778 0.005968677 -0.083144754
000100 e2 95 6e 3d 7a 7d 29 be 2e b6 96 be d5 e3 89 be
       0.05824841 -0.16551772 -0.29435867 -0.26931635
000110 d4 fd 93 bd ab f3 0b 3d 98 e4 59 3e 9f ec ca 3d
       -0.07226148 0.034167927 0.21278608 0.09908413
000120 0a aa ba 3c 67 12 e3 3d c1 2c d6 3d 81 31 21 be
       0.022786159 0.11087494 0.10457755 -0.1574154
000130 7e 89 36 be 12 ab 95 be ae d6 d0 bd f4 0e b6 3e
       -0.17825887 -0.2923208 -0.10197197 0.35558283
000140 5c 2e 0c 3e a0 f0 58 bb 7c 53 52 3e 15 c6 ca 3d
       0.1368956 -0.0033102408 0.2053966 0.099010624
000150 2b 01 1e 3d a3 2b 5c bf 84 a8 49 3e d2 9c cb bd
       0.038575333 -0.86004084 0.1969319 -0.099420205
000160 ee 49 e2 3c 95 cc 87 3d 1d 01 03 3e 6a b8 4f 3e
       0.027623143 0.06630818 0.12793393 0.20285192
000170 63 c3 33 3f 13 ca dc bd 56 d7 f5 be 01 16 ab 3e
       0.7022001 -0.1078073 -0.4801585 0.33415225
000180 29 7c 32 3f de ea a8 3e dd 92 b5 3d 2b 58 de 3d
       0.69720703 0.3299169 0.088659026 0.108566605
000190 a8 65 36 3d 0f 47 9e be 6e 08 eb 3d 89 13 0c 3f
       0.04453054 -0.30913588 0.11476217 0.5471731
0001a0 2d 24 bc 3e 8d fa 89 3e f6 e2 7c 3e b0 ae a4 be
       0.3674635 0.26948968 0.24695954 -0.32164526
0001b0 e4 4d 26 bd 95 79 8a 3e 4e 2a 90 be a0 90 a1 3d
       -0.040601626 0.27045885 -0.28157276 0.07888913
0001c0 fc c3 09 be 5b 26 92 bd 26 82 b1 3e 0e 40 b4 3d
       -0.13453668 -0.07136222 0.34669608 0.0880128
0001d0 d0 b9 14 be 54 5d ee 3d cc a2 9e bd 55 e0 c4 3c
       -0.14524007 0.11638895 -0.07745895 0.024032751
0001e0 62 37 2f 3e c2 78 50 bf c6 70 00 be a3 3f dc 3c
       0.1711097 -0.8143426 -0.1254302 0.026885813
0001f0 df ba 39 3e 72 1b 2a 3d 0d 53 71 3f 7e 5f 91 bd
       0.18137692 0.04153008 0.9426735 -0.07098292
000200 84 ae 8e 3c 42 85 95 3f 3e cf 11 bf 54 06 37 be
       0.0174172 1.1681292 -0.5695685 -0.17873508
000210 d9 ad 8f 3f f7 c6 9c be 6e 9f cc 3d ae 20 0e 3e
       1.1224929 -0.30620548 0.09991346 0.13879654
000220 e6 4d 89 3e d6 04 3b 3e 7e 32 c7 be 47 33 46 3e
       0.26817244 0.18263564 -0.3890571 0.19355498
000230 a6 e4 0f bf 09 fb d7 bd 83 b7 a6 3d 72 4a 4e 3e
       -0.56208265 -0.10545928 0.08140471 0.20145586
000240 f4 6b 1d 3e d4 1e 98 be 28 0d fe 3c 96 4e 8c 3e
       0.15373212 -0.2971102 0.031012133 0.27403706
000250 c3 8e 17 bf 4a f8 25 be 11 a3 19 3e 97 35 e4 3e
       -0.5920221 -0.16207996 0.15003611 0.44572136
000260 3a 73 fe bc 8a e0 2e 3e c5 8a f6 3e d1 2f f6 3d
       -0.031060804 0.17077842 0.48152748 0.12020839
000270 48 b7 72 bc 5a ff 95 3e bb d8 32 be 9b d2 ba bd
       -0.0148142055 0.2929638 -0.17465489 -0.09122201
000280 ab 59 7e 3e 5d a3 59 3d f3 79 43 3d 50 44 31 bb
       0.24838893 0.05313431 0.04772372 -0.0027048774
000290 6b 6d 1e 3d 7a 51 a0 be c3 23 10 3f 3a c2 84 3d
       0.038678568 -0.31312162 0.5630457 0.06482358
0002a0 55 99 8e be 89 23 3b bc 5b 4e c4 bd 0e 38 6a bb
       -0.27851358 -0.011422046 -0.095852576 -0.0035738978
0002b0 4f 11 8d be 01 5d 1f be 9a 5c 6b be c4 71 ab be
       -0.27552268 -0.15562822 -0.22984543 -0.33485234
0002c0 18 63 3d be 8a 1a 09 3e 5e ff d3 3d ab 2e 5d be
       -0.18494833 0.1338903 0.10351442 -0.21599834
0002d0 85 40 7c be e7 22 3e 3d 4d a5 94 3d aa 26 2a be
       -0.24633987 0.046420004 0.07258091 -0.16616312
0002e0 05 3d ff 3c c4 36 16 bf a1 42 29 bd 42 00 bd 3e
       0.031157026 -0.58677316 -0.041323308 0.3691426
0002f0 55 62 fc 3e 3b 31 46 3e bd 45 b8 be 84 14 ea 3d
       0.4929377 0.19354717 -0.35990706 0.11429694
000300 a3 1a 83 3e d3 58 2a 3f 42 a9 b5 be 48 d8 ee be
       0.2560626 0.66541785 -0.35480696 -0.46649384
000310 27 41 83 3e 48 d8 d7 bc 4d 58 7a 3d 05 2b b4 3d
       0.25635645 -0.026348248 0.061119366 0.08797268
000320 9a 14 83 3c 11 b1 64 3e 1d a2 fd 3c 4c 6c 08 3e
       0.016001035 0.2233317 0.03096109 0.13322562
000330 8b 2b c9 bb 81 f1 3f 3e 97 0f 11 3e d8 aa 7d bd
       -0.006139224 0.1874447 0.14166103 -0.061930507
000340 e5 12 03 be 30 92 61 3d 49 19 4c 3e c5 00 3b 3f
       -0.12800176 0.055071056 0.1993152 0.7304805
000350 48 9c e5 bd 8d 3a b9 bd b8 60 6f 3e cc fa 69 bd
       -0.11211449 -0.09044371 0.23376739 -0.057123944
000360 2f 8e 80 be 8d 6e 80 be fd b8 d9 3d b4 25 b9 3d
       -0.25108477 -0.25084344 0.10630987 0.090403944
000370 a3 c9 bf be 7d 3e cc 3d be c9 1e be f6 b8 37 3d
       -0.37458524 0.09972856 -0.15506646 0.044854127
000380 a0 74 6c be 8b 9a 34 3e 8f a3 25 3e e5 8a fe 3d
       -0.23091364 0.17637078 0.16175674 0.12428836
000390 ad 2c e9 bd 8f 23 dd be 64 ca e7 3e 28 25 be bd
       -0.11385474 -0.43191192 0.452716 -0.09284431
0003a0 1e 0e 9c 3d bc fe af be 7a ca dc bd 65 f6 a1 3e
       0.0761988 -0.34374034 -0.10780807 0.31633297
0003b0 d8 ff 58 bc db 19 80 3e 82 94 d0 be 44 8d 72 3e
       -0.013244592 0.25019726 -0.40738302 0.23686701
0003c0 fc 44 b5 bc 26 89 d7 bc 1b 4e 97 bd 31 7c 8d 3d
       -0.02212762 -0.026310515 -0.07387944 0.06908453
0003d0 5a a9 00 bf d8 b0 92 bc c1 ee 6b 3d 67 f6 d4 3e
       -0.5025841 -0.017906591 0.05760074 0.4159424
0003e0 b2 0a ee be 62 70 56 3c f6 92 4e be 1c 5c e0 3c
       -0.46492535 0.013088318 -0.20173249 0.027387671
0003f0 96 2d 76 3d 2d 20 24 be b7 72 6b 3d 13 6f 59 3e
       0.060102068 -0.16027899 0.057482447 0.21233778

B1.c1_r.dw.bias f4 [48]
000000 e4 7d 4d 3c bf 64 07 bf a3 56 97 3e 1d cd ed bd
       0.012542222 -0.528881 0.29558286 -0.11611388
000010 e4 fd 5a 3e 3d fb da bd 39 ec f8 3d b2 70 8a 3e
       0.21385914 -0.10692451 0.12154431 0.27039105
000020 2e ac 3a 3b 0f f3 2f 3e c3 c7 92 bd c7 d7 05 3d
       0.0028483975 0.17182563 -0.07167008 0.032676484
000030 d1 8b ce 3c f1 0a 36 be 3b 16 71 be 8e 31 9a 3b
       0.025213154 -0.17777611 -0.23543637 0.0047056144
000040 ad 35 86 be bc bf 34 3e c6 b9 0b bd 95 04 a3 bd
       -0.26212826 0.17651266 -0.034112714 -0.07959858
000050 bb 48 b1 bd f7 ea 97 3c 3a 61 f7 3b 3f f6 5d 3e
       -0.0865645 0.018544657 0.007549432 0.21675967
000060 74 1b be bd 13 cd 10 3c 4e 00 2c 3e 9e 3b 29 3e
       -0.0928258 0.008837956 0.16796991 0.16526648
000070 c6 e8 06 3e a2 a1 c1 3d 6a 36 52 be 87 2f 16 3e
       0.13174734 0.09454657 -0.2052857 0.14666568
000080 1b 8d 3c bd 11 cb 47 3e 2e f3 9d 3e 7f 31 60 3e
       -0.046033006 0.19511057 0.30849594 0.21893881
000090 e1 8d 82 3e 5a b7 73 3e 8e 29 27 3d 1d a7 29 3d
       0.2549887 0.23800412 0.040811114 0.041419137
0000a0 46 22 c2 3d 78 8b ee 3d ad ea 81 bc c8 cb 99 be
       0.094791934 0.11647695 -0.015858972 -0.30038285
0000b0 36 cd 51 3d 43 46 56 bd 89 bf 09 3e e0 af 11 be
       0.051221095 -0.0523131 0.13451971 -0.14227247

B1.c2_d.weight f4 [24, 48, 1, 1]
000000 b5 21 24 3d 0d 57 ff 3d 6e a2 45 be bd ea 03 3c
       0.040071208 0.124677755 -0.19300243 0.008051571
000010 17 c9 2f 3d d1 d3 c4 3c 35 8b 9f bd 3e 72 e1 bc
       0.042916384 0.024026783 -0.077902235 -0.027520295
000020 46 59 e3 3e 7a ce 52 3e a4 33 b2 be 13 47 85 bc
       0.44404048 0.20586577 -0.34805024 -0.016269242
000030 bf 0e 14 3d 7d 36 53 3e 4c e7 2b bd d2 e6 96 3d
       0.036146875 0.20626254 -0.04196863 0.07368244
000040 9d e5 80 3e a7 07 e6 3d bf 6b 4d bd ef 88 83 bd
       0.2517518 0.11231928 -0.050151583 -0.064226024
000050 94 41 d1 3d b0 a3 46 3e ea 24 1b bc ae 1f 0c 3e
       0.10217586 0.1939838 -0.00946925 0.1368396
000060 2d 89 d6 3d 71 99 6a be 77 79 80 be c6 6a 1f 3e
       0.10475383 -0.22910096 -0.2509267 0.15568075
000070 9d 8b 5e 3d 13 fe 9b be 25 08 be bd 32 02 48 3e
       0.054332364 -0.3046728 -0.09278897 0.19532087
000080 01 e5 4c bd 92 7b f9 3c f2 c8 79 bb 30 48 87 3d
       -0.050023083 0.03045443 -0.0038114158 0.066055655
000090 2d c2 79 3e 2f 2d 4c 3d 11 82 5d bd 4b cc 29 bc
       0.24390478 0.049847778 -0.05407912 -0.010363649
0000a0 df 03 48 3e 2b 15 77 bd c3 96 af bd bd f1 88 be
       0.19532727 -0.06032292 -0.085736774 -0.26746932
0000b0 56 b8 95 be cb 62 29 be 6a e5 f5 3d 31 68 94 3d
       -0.292422 -0.16541593 0.12006648 0.072464354
0000c0 66 6d 55 3d cd fb 85 be 12 5b 70 be 75 1b a9 bd
       0.052106284 -0.2616867 -0.2347224 -0.0825719
0000d0 89 ba 4d be f3 39 10 3e a4 7b 99 3e 70 95 c6 3d
       -0.20090689 0.14084606 0.29977143 0.09696472
0000e0 7e 21 98 bf 77 5b 26 3d 96 e1 4c be c2 67 b5 ba
       -1.1885221 0.04061457 -0.20007929 -0.0013840126
0000f0 2c 85 93 3d 7e b8 db bc f9 82 d1 bc 4b 08 27 3e
       0.07203135 -0.026821371 -0.025575148 0.16311757
000100 7a 52 d7 3e 33 97 e0 bd 1b 8c e9 3e 7d e7 31 bb
       0.42055112 -0.10966339 0.45614704 -0.0027146034
000110 40 d0 72 3d 5e c6 b8 be 99 37 97 3d ac 38 26 3d
       0.059280634 -0.36088842 0.07383651 0.04058139
000120 aa 26 f6 bc b7 34 16 bd d6 ff 3e 3e 67 57 df bd
       -0.030047733 -0.036671367 0.18652281 -0.109053425
000130 41 d1 cd be 9f ed 90 3d 98 63 57 be 76 40 cd bc
       -0.4019871 0.070765726 -0.21034086 -0.025055151
000140 74 5a 1d 3e ad a8 98 be 49 59 ec 3c 91 3b 95 3d
       0.15366536 -0.2981619 0.028851168 0.07286752
000150 24 17 23 bd 8c 8e 81 be 3b 8f 17 3d b9 72 31 3e
       -0.03981699 -0.25304067 0.03700183 0.1732892
000160 ae 68 10 3e 47 2f 96 bd d5 d3 25 be dc 97 06 be
       0.14102432 -0.07333236 -0.16194089 -0.13143867
000170 1f 90 87 3e ab 54 6e be 05 b6 a4 3d 07 9d 05 bd
       0.26477143 -0.23274486 0.0804253 -0.032620456
000180 55 78 7f be 0d 4f cc 3c db 55 e4 bc 54 19 03 be
       -0.24948247 0.024940038 -0.02787297 -0.1280263
000190 12 24 2d 3e d2 ad 98 be 8e e1 0d be 3f 44 d5 3d
       0.16908291 -0.29820114 -0.13855574 0.104134075
0001a0 f4 58 3e bd b8 60 d1 3c 5a 1f 3f be 24 67 26 bd
       -0.04647155 0.025558814 -0.18664303 -0.040625706
0001b0 d8 1e 04 be 61 6e ee 3e ec 24 d2 bc 18 a4 4d bd
       -0.12902391 0.46568587 -0.025652371 -0.05020532
0001c0 b2 13 ab 3d a7 81 02 bc 24 63 42 3f 75 3b 40 bd
       0.08353366 -0.007965482 0.75932527 -0.046931703
0001d0 49 98 82 be d4 fe c2 be 88 9d 14 3e 46 16 5d 3d
       -0.2550681 -0.38085043 0.14513218 0.05397632
0001e0 55 1c c9 3c 7d 8f 8b bb d1 6f fb 3d 33 ff 1f 3e
       0.024549643 -0.0042590485 0.12277187 0.15624695
0001f0 6d 95 0a be 64 fd 19 bd ca 23 54 be dd 5d 2d 3d
       -0.13533564 -0.037595168 -0.20716777 0.042325843
000200 f5 de 24 3d 9e 9e 23 be 83 b6 0a bf f7 9e a6 be
       0.04025169 -0.15978476 -0.5418474 -0.32543156
000210 cf 54 99 bc 75 5f 94 3e 02 71 15 3e d4 64 54 bd
       -0.018717198 0.28979078 0.1459389 -0.05185397
000220 2d 15 b1 3d b2 83 a8 3d 2a 6f ce bd 0a ac a3 3d
       0.08646617 0.08228244 -0.100797966 0.07991798
000230 33 26 ce 3c 7c a6 67 3d 46 28 05 3e 39 8d 3c 3e
       0.0251647 0.056555256 0.13003644 0.18413247
000240 d7 83 c7 3d 3d 6a 26 bc b9 1d 17 be b9 a2 91 3e
       0.09741943 -0.010157165 -0.14757432 0.2844446
000250 e1 14 4b be 9b a6 0e be 68 c8 d8 bd 37 2a 01 bf
       -0.19832183 -0.13930742 -0.105850995 -0.5045504
000260 83 63 c5 3d 3f ee 3b 3d 28 22 97 3d 06 bb 2f 3e
       0.09638121 0.045881506 0.07379562 0.17161188
000270 02 35 d8 3b a0 12 cf 3b 30 46 a4 3c b0 1f d8 3d
       0.006598116 0.006319359 0.020053 0.10552919
000280 d5 d6 34 3e dc a7 4a 3d 07 ea af 3d 7e 10 b4 bd
       0.17660077 0.04947649 0.08589559 -0.08792208
000290 86 25 1b bd d1 80 b4 bc 7e dd 2a 3e 24 ea 21 bf
       -0.037877582 -0.02203408 0.16686055 -0.63247895
0002a0 88 ff d0 ba 5a 4b 2d be 72 0b 5a be 52 d6 82 be
       -0.0015945295 -0.16923276 -0.21293429 -0.25554138
0002b0 01 ac 41 3d 19 7e 83 3d c8 f4 1d bd 45 51 7b 3d
       0.047283176 0.064205356 -0.03856352 0.0613568
0002c0 21 fd a5 bd 49 a0 ed 3d cf 61 e4 3d b3 f6 99 bc
       -0.08104921 0.116028376 0.11151468 -0.018794393
0002d0 80 9f 88 3e b4 fa 22 3d f3 e2 09 3e 24 ec e7 3c
       0.2668419 0.03978987 0.1346548 0.028310843
0002e0 6b f3 0c 3e 75 4a 33 bd af 91 05 3e 6e 2b c7 bd
       0.13764732 -0.04377218 0.13043855 -0.097250804
0002f0 a6 3f 7d bd ac 48 ed bd c6 4f 62 3d 64 eb 6a 3e
       -0.061828278 -0.11586127 0.05525186 0.22941357
000300 66 fe a1 bb 3b 16 f7 3d d6 da 8f 3e d1 5d 5e bc
       -0.0049436567 0.12064787 0.28096646 -0.013572172
000310 13 21 0e be 34 5b a2 b9 36 62 56 bd 9e be 85 be
       -0.13879804 -0.00030967 -0.052339755 -0.26121992
000320 08 43 4a 3c b0 5f d7 bc 69 94 08 3e c6 27 6d be
       0.012345083 -0.026290745 0.13337864 -0.23159704
000330 bf 27 1d be 3f 1a 0a ba aa 4b b3 bb 54 e0 20 3d
       -0.15347193 -0.0005268193 -0.0054716663 0.039276436
000340 91 c7 22 be ee d2 41 bd 1c 8e 69 be 94 c1 65 3d
       -0.15896441 -0.0473203 -0.22808117 0.056092814
000350 00 7e ed 3e c1 3c 1a 3e 67 d0 75 3e cb 52 96 3c
       0.46385193 0.15062238 0.2400528 0.018350026
000360 89 a2 0d be 41 41 ee 3b 68 cc 29 3e 9b a3 01 be
       -0.13831533 0.0072709625 0.16581881 -0.12660067
000370 8c f8 8a 3d 38 17 de bd c3 5f 3f bc ba 6f a0 3d
       0.06785688 -0.108442724 -0.011680546 0.0783381
000380 d3 b3 ba be 1b 8b a1 3d 99 c0 87 3e dd 67 c7 bc
       -0.3646532 0.078878604 0.26514128 -0.024341518
000390 b8 95 41 be 45 f3 89 3c 2d f7 bd be 79 9c c4 3e
       -0.1890477 0.016839633 -0.37102643 0.3840063
0003a0 98 48 c1 bd 32 07 43 3e ff 1f 1d be c6 67 77 3e
       -0.09437674 0.19045714 -0.15344237 0.2416068
0003b0 d2 32 74 3e 8f 7f a1 3c e9 e7 c8 bd 40 66 2f 3d
       0.23847511 0.019714145 -0.09809858 0.042822123
0003c0 49 40 bd 3e 51 7d a2 3d 0f 2c 31 3e ea f4 9f be
       0.36963108 0.079340585 0.17301963 -0.31241542
0003d0 86 39 be 3d 42 3f a1 3c 97 24 e6 3d cb 9d 43 3d
       0.092883155 0.019683484 0.11237448 0.047757905
0003e0 0a e1 2f be 4c cf d9 be 03 f5 6b 3e cb a9 a3 bd
       -0.1717569 -0.42540967 0.23042683 -0.0799137
0003f0 6d 19 aa bd 1c 15 89 3e ff 82 b3 bd 1c a9 24 be
       -0.08305631 0.26773918 -0.0876522 -0.16080135

B1.c2_d.bias f4 [24]
000000 8a b6 40 bd 87 93 12 3e 2d ce e4 bc c8 3e 6e be
       -0.047049083 0.1431409 -0.027930344 -0.23266137
000010 00 55 eb 3c 75 a7 4f 3d 95 16 19 3e f9 b9 37 3d
       0.028727055 0.05069681 0.1495002 0.04485509
000020 70 3f 97 3b 09 b3 cc bd b9 ea b8 bc 90 fc a7 3d
       0.0046157166 -0.09995086 -0.022572862 0.08202469
000030 8d cc 42 be 04 cc 09 3b 18 07 91 3d 7c 88 a9 bc
       -0.19023342 0.0021026144 0.07081431 -0.020694964
000040 37 32 66 3d 5f 63 2d be 04 a0 5b bd 6e 59 89 3d
       0.056200232 -0.16932438 -0.0536194 0.067065105
000050 84 cd 05 3e ea e9 83 3d b3 0a a0 3c 64 81 e9 3d
       0.13066679 0.064411 0.019536352 0.114016324
